Model_Antrenat/tiny_conv.tflite (tflite, 50320 bytes, 2 tensors)

weights_quant/FakeQuantWithMinMaxVars u1 [1, 10, 8, 8] scale=0.0022404955 zero_point=145
-0.10530329 0.08513883 0.008961982 -0.04032892 -0.0022404955 -0.0067214863 -0.06497437 -0.1008223
-0.05601239 0.02016446 0.06049338 -0.029126441 -0.038088422 -0.0067214863 -0.19044212 -0.08513883
-0.015683468 0.024645451 0.011202478 0.1994041 -0.033607434 -0.008961982 0.18148014 -0.004480991
-0.02016446 -0.04032892 0.07169586 -0.051531397 -0.042569414 -0.015683468 0.015683468 -0.038088422
-0.022404956 -0.04032892 0.0022404955 0.13667023 -0.06721487 -0.011202478 0.19044212 0.038088422
0.042569414 -0.033607434 -0.042569414 -0.07169586 -0.013442973 0.017923964 -0.11426527 0.013442973
0.08289833 -0.038088422 -0.04032892 0.10978428 -0.004480991 -0.0067214863 0.06945536 0.06049338
0.10530329 -0.09410081 -0.08513883 -0.076176845 0.07169586 0.03584793 -0.022404956 0.05377189
-0.096341304 0.11202478 0.0067214863 -0.07169586 -0.02016446 -0.031366937 -0.013442973 -0.06945536
-0.029126441 0.06497437 0.047050405 -0.038088422 -0.029126441 -0.017923964 -0.11202478 -0.06273387
-0.022404956 0.07169586 0.029126441 0.10306279 -0.051531397 -0.05377189 0.2464545 0.017923964
-0.011202478 -0.047050405 0.047050405 -0.026885945 -0.08065784 -0.03584793 -0.02016446 -0.038088422
-0.011202478 -0.026885945 0.013442973 0.116505764 -0.076176845 -0.0067214863 0.08289833 0.06945536
0.024645451 -0.026885945 -0.047050405 -0.031366937 -0.05377189 0.0067214863 -0.12322725 0.0
0.08289833 -0.04480991 -0.04032892 0.08065784 -0.02016446 0.004480991 0.076176845 0.076176845
0.06945536 -0.08289833 -0.07393635 -0.038088422 0.049290903 0.03584793 -0.029126441 0.038088422
-0.049290903 0.11202478 0.004480991 -0.076176845 0.06273387 -0.06497437 0.038088422 -0.03584793
-0.011202478 0.04032892 0.026885945 -0.02016446 -0.026885945 -0.02016446 -0.024645451 -0.047050405
-0.02016446 0.16579667 0.05377189 0.031366937 -0.022404956 -0.07393635 0.2464545 0.04480991
-0.017923964 -0.06721487 0.017923964 -0.0022404955 -0.07393635 -0.042569414 -0.08289833 -0.038088422
-0.011202478 0.017923964 0.013442973 0.06273387 -0.015683468 -0.022404956 -0.024645451 0.08065784
-0.0022404955 -0.038088422 -0.047050405 0.008961982 -0.07393635 0.004480991 -0.1008223 -0.0067214863
0.06497437 -0.042569414 -0.058252882 0.03584793 0.013442973 0.013442973 0.07169586 0.06049338
0.026885945 -0.08289833 -0.05377189 -0.0067214863 0.017923964 0.04480991 -0.008961982 0.008961982
-0.09186032 0.03584793 0.017923964 -0.08065784 0.078417346 -0.078417346 0.07169586 -0.02016446
-0.004480991 -0.013442973 0.05601239 -0.011202478 0.10306279 -0.04032892 0.026885945 -0.042569414
-0.03584793 0.22404955 0.06273387 0.008961982 0.031366937 -0.058252882 0.16131568 0.06497437
-0.015683468 -0.051531397 0.022404956 -0.011202478 0.011202478 -0.049290903 -0.11426527 -0.02016446
-0.024645451 0.13442974 0.004480991 0.06945536 0.011202478 -0.049290903 -0.03584793 0.08961982
0.026885945 -0.06273387 -0.05601239 0.0067214863 -0.042569414 0.004480991 -0.08961982 -0.017923964
0.06945536 -0.0022404955 -0.09410081 0.03584793 0.024645451 0.011202478 0.06273387 0.033607434
0.049290903 -0.13442974 -0.06497437 0.011202478 0.0 0.058252882 0.015683468 -0.008961982
00000000: 62b7 957f 908e 7464 789a ac84 808e 3c6b
00000010: 8a9c 96ea 828d e28f 887f b17a 7e8a 9880
00000020: 877f 92ce 738c e6a2 a482 7e71 8b99 5e97
00000030: b680 7fc2 8f8e b0ac c067 6b6f b1a1 87a9
00000040: 66c3 9471 8883 8b72 84ae a680 8489 5f75
00000050: 87b1 9ebf 7a79 ff99 8c7c a685 6d81 8880
00000060: 8c85 97c5 6f8e b6b0 9c85 7c83 7994 5a91
00000070: b67d 7fb5 8893 b3b3 b06c 7080 a7a1 84a2
00000080: 7bc3 936f ad74 a281 8ca3 9d88 8588 867c
00000090: 88db a99f 8770 ffa5 8973 9990 707e 6c80
000000a0: 8c99 97ad 8a87 86b5 9080 7c95 7093 648e
000000b0: ae7e 77a1 9797 b1ac 9d6c 798e 99a5 8d95
000000c0: 68a1 996d b46e b188 8f8b aa8c bf7f 9d7e
000000d0: 81f5 ad95 9f77 d9ae 8a7a 9b8c 967b 5e88
000000e0: 86cd 93b0 967b 81b9 9d75 7894 7e93 6989
000000f0: b090 67a1 9c96 ada0 a755 7496 91ab 988d

weights_quant_1/FakeQuantWithMinMaxVars/transpose u1 [12, 4000] scale=0.0008066325 zero_point=140
0.0 -0.00645306 0.011292855 0.0056464276 0.03307193 0.004839795 0.011292855 -0.00645306
-0.0008066325 -0.004839795 0.029845404 -0.0153260175 0.0024198976 0.00967959 0.01613265 0.011292855
0.00967959 0.0645306 0.0346852 -0.0056464276 -0.029845404 0.014519385 0.0322653 0.089536205
0.01613265 0.09276274 0.00322653 0.0040331627 -0.016939282 0.017745916 0.023392342 -0.030652035
-0.00645306 0.09195611 -0.01290612 0.008066325 -0.00645306 0.004839795 0.0153260175 -0.008066325
0.0008066325 0.09276274 -0.0024198976 -0.0040331627 0.0008066325 -0.001613265 0.008066325 0.0024198976
-0.00967959 0.08388978 -0.0040331627 0.008872958 0.00645306 0.028232139 0.008066325 -0.00322653
0.010486223 0.070177026 0.0 -0.0072596925 0.001613265 0.00967959 -0.0153260175 -0.0072596925
0.0 0.01613265 0.012099488 -0.008066325 -0.010486223 0.001613265 -0.0056464276 0.028232139
0.012099488 0.0693704 0.020972446 -0.00645306 -0.0072596925 -0.0024198976 -0.0072596925 0.0024198976
0.010486223 0.08066325 0.012099488 -0.00967959 -0.0072596925 -0.0056464276 0.0040331627 0.00645306
0.010486223 0.08630968 -0.004839795 -0.010486223 -0.0008066325 0.00645306 0.01290612 0.01935918
-0.011292855 0.070177026 0.011292855 0.013712753 -0.01613265 -0.00322653 -0.00322653 -0.0072596925
0.008066325 0.09276274 0.0153260175 -0.00322653 -0.00322653 0.017745916 -0.0024198976 0.0
0.010486223 0.09276274 -0.00645306 -0.0056464276 0.00967959 0.00645306 -0.010486223 -0.039524995
0.0056464276 0.07904999 -0.012099488 -0.012099488 0.020165812 -0.00645306 -0.008872958 -0.027425505
0.0008066325 0.060497437 0.0024198976 0.00645306 0.018552547 0.0056464276 0.00645306 -0.01613265
-0.0040331627 -0.029845404 0.001613265 0.008066325 0.017745916 0.01613265 0.01290612 -0.001613265
-0.0056464276 -0.030652035 -0.0008066325 -0.0072596925 0.017745916 -0.00967959 -0.0040331627 0.0072596925
-0.0040331627 0.013712753 0.0024198976 0.00322653 0.0153260175 0.004839795 0.004839795 -0.00322653
-0.023392342 -0.011292855 -0.0056464276 -0.017745916 0.01613265 0.0 0.0008066325 0.001613265
-0.00645306 -0.0040331627 0.026618874 -0.0024198976 0.001613265 0.023392342 0.023392342 -0.01613265
0.0 0.00322653 0.027425505 -0.00645306 -0.004839795 0.018552547 0.041138258 0.0040331627
-0.00967959 0.008872958 0.001613265 0.010486223 -0.0056464276 0.0056464276 0.016939282 -0.014519385
0.004839795 0.004839795 0.0024198976 0.00645306 -0.010486223 0.024198975 0.0024198976 -0.0072596925
0.0153260175 0.004839795 0.020165812 0.00645306 -0.0072596925 0.00322653 -0.0008066325 0.001613265
0.0024198976 0.001613265 0.008872958 -0.004839795 -0.001613265 0.011292855 0.001613265 -0.0024198976
-0.0040331627 0.00967959 -0.004839795 0.008066325 -0.0056464276 0.016939282 0.01290612 0.0072596925
0.00322653 0.0040331627 0.008066325 0.00645306 -0.001613265 0.0024198976 0.016939282 0.012099488
0.010486223 0.008872958 0.00645306 0.001613265 -0.00645306 -0.0024198976 0.0072596925 0.0040331627
0.0153260175 0.00322653 -0.0040331627 0.008066325 -0.008066325 0.01613265 0.010486223 0.014519385
-0.011292855 0.0056464276 -0.0024198976 0.013712753 -0.001613265 0.020165812 -0.0024198976 0.013712753
00000000: 8c84 9a93 b592 9a84 8b86 b179 8f98 a09a
00000010: 98dc b785 679e b4fb a0ff 9091 77a2 a966
00000020: 84fe 7c96 8492 9f82 8dff 8987 8d8a 968f
00000030: 80f4 8797 94af 9688 99e3 8c83 8e98 7983
00000040: 8ca0 9b82 7f8e 85af 9be2 a684 8389 838f
00000050: 99f0 9b80 8385 9194 99f7 867f 8b94 9ca4
00000060: 7ee3 9a9d 7888 8883 96ff 9f88 88a2 898c
00000070: 99ff 8485 9894 7f5b 93ee 7d7d a584 816a
00000080: 8dd7 8f94 a393 9478 8767 8e96 a2a0 9c8a
00000090: 8566 8b83 a280 8795 879d 8f90 9f92 9288
000000a0: 6f7e 8576 a08c 8d8e 8487 ad89 8ea9 a978
000000b0: 8c90 ae84 86a3 bf91 8097 8e99 8593 a17a
000000c0: 9292 8f94 7faa 8f83 9f92 a594 8390 8b8e
000000d0: 8f8e 9786 8a9a 8e89 8798 8696 85a1 9c95
000000e0: 9091 9694 8a8f a19b 9997 948e 8489 9591
000000f0: 9f90 8796 82a0 999e 7e93 899d 8aa5 899d
